srv6_sdn_control_plane/monitoring_system/traffic_adaptation/DQN_agent/agent_models/17_07_2023__16h.30__v13_agentModel_EPIS500_BTCH128_eDEC2000_2HL128_Nt2_MaxWrngAct5.pt (torch, 74903 bytes, 6 tensors)

weight f4 [128, 9]
0.01780306 0.14588842 0.13544084 0.47307917 -0.10007526 0.122636214 0.29010364 0.22794753
-0.05200064 0.09267647 -0.13568994 0.06597985 -0.4087526 -0.1706991 0.18756776 0.17134759
0.1848175 0.21376276 0.009520613 0.26237807 -0.108393624 -0.90148324 0.2149824 -0.07247716
-0.26092058 -0.0067130495 -0.09237505 0.08823387 -0.32129824 -0.03707076 -0.16846603 -0.27978757
-0.34831282 0.2521491 0.20809284 0.30749413 -0.237766 0.18402918 -0.109454885 -0.19145814
-0.09802867 0.27576366 0.14299187 -0.1508993 0.42549425 0.039901234 -0.11746288 -0.02512797
0.51066595 0.08625133 0.005261648 0.18734366 0.30913433 -0.0153837055 -0.17724033 0.1560817
-0.19821247 0.26111823 -0.26319173 0.19989607 -0.3270756 -0.047893647 0.31064963 -0.24208374
-0.33957574 0.04744178 -0.083674386 0.055668727 -0.07012718 -0.2561931 0.0055002877 0.08785739
-0.045972187 0.038816508 -0.047463324 -0.17285824 -0.009123861 -0.29144377 0.18539238 -0.22387469
-0.26805073 -0.0340751 -0.043857664 -0.20421861 -1.1554284 -0.16102676 -0.23186515 0.2284756
0.02814729 0.106055334 -0.02963178 -0.12339308 0.16718931 -0.39602703 0.2853002 0.15886126
0.3476146 -0.078222685 0.23334426 0.2239015 -0.09751018 -0.07950481 0.08346057 -0.13789792
-0.016477084 0.2639454 0.23542054 0.16732349 0.18602285 -0.09606268 -0.047668025 -0.9299764
0.042522296 0.17528108 0.4082335 0.20858082 -0.03236236 0.124046326 0.19232778 -0.08197318
-0.27424622 0.16905312 -0.103391536 0.098456286 0.008161148 -0.28113267 0.26103702 0.119658984
0.06766822 -0.15453616 0.07746014 0.08844155 -0.19926429 0.2525154 0.41790348 0.03901724
0.19927713 0.13559133 0.95447254 0.040880583 -0.13098244 0.23097223 -0.083318055 -0.030240942
0.024667975 -0.18333596 -0.17545323 0.054903265 0.09160255 -0.21210945 -0.14113453 0.12700953
0.42361003 -0.14583674 0.05768441 0.20414776 0.37728062 0.21209529 -0.0043253032 0.24966373
0.1998691 0.33805713 0.1299005 -0.06977411 -0.3149411 0.16299827 -0.019704679 -0.24719337
0.045261636 0.23186405 0.07715354 0.21191125 0.008601409 -0.19222458 0.53671646 0.20695032
-0.0036125109 -0.12241387 -0.024821727 0.011592065 -0.28853732 -0.11607102 0.2388264 -0.09271249
-0.10935939 -0.1853845 -0.11104471 -0.14206272 0.13530785 0.024508394 0.18599804 -0.09344766
0.16472606 -0.19525069 -0.040558994 -0.2901768 0.31191725 0.004796282 -0.28456596 -0.1037915
0.08178727 0.053636756 0.051718768 -0.21028511 0.009962144 -0.055137668 -0.19451155 -0.27536035
0.1633227 0.09535158 -0.2727084 0.15197855 -0.18285897 0.07268604 -0.0146581875 0.025564803
-0.52868927 0.1043662 0.21632636 -0.42623883 -0.097108506 0.096571386 0.2806756 0.10947562
-0.04693672 -0.0037606056 0.16364138 0.20221108 1.0588552 0.124367096 -0.102498956 0.053352
0.014954147 -0.11665106 -0.082284026 0.23197357 0.18383281 0.38581035 0.4208375 0.5236007
0.29524842 -0.1117106 -0.06810445 -0.2130028 -0.28576615 -0.1220093 0.0567928 0.13783333
-0.19475365 -0.1465433 -0.15641616 -0.13626233 -0.046012226 -0.35520998 -0.28029272 -0.71041673
00000000: b9d7 913c c663 153e 01b1 0a3e 6f37 f23e
00000010: 42f4 ccbd b228 fb3d 7788 943e 146b 693e
00000020: a0fe 54bd 29cd bd3d 4ef2 0abe 7220 873d
00000030: 0548 d1be bfcb 2ebe c311 403e be75 2f3e
00000040: cc40 3d3e a0e4 5a3e 58fc 1b3c 6b56 863e
00000050: 7afd ddbd 9bc7 66bf 5924 5c3e e86e 94bd
00000060: 6297 85be 24f9 dbbb 212f bdbd f6b3 b43d
00000070: 3481 a4be 82d7 17bd 5c82 2cbe 5140 8fbe
00000080: 0f56 b2be b019 813e 4a16 553e df6f 9d3e
00000090: ee78 73be 2572 3c3e e229 e0bd 9a0d 44be
000000a0: 41c3 c8bd e530 8d3e 766c 123e 5985 1abe
000000b0: 62da d93e 7a6f 233d 6190 f0bd 2cd9 cdbc
000000c0: 01bb 023f 8aa4 b03d e769 ac3b 04d7 3f3e
000000d0: db46 9e3e f00b 7cbc 7d7e 35be e2d3 1f3e
000000e0: 36f8 4abe 4ab1 853e 11c1 86be 8eb1 4c3e
000000f0: 7476 a7be 212c 44bd 780d 9f3e cde4 77be
00000100: dfdc adbe 5052 423d 7a5d abbd e404 643d
00000110: d79e 8fbd be2b 83be c23b b43b 93ee b33d
00000120: 554d 3cbd 0ffe 1e3d e768 42bd c001 31be
00000130: 3f7c 15bc 1e38 95be 80d7 3d3e 683f 65be
00000140: f23d 89be 5592 0bbd 18a4 33bd af1e 51be
00000150: 14e5 93bf 33e4 24be 0f6e 6dbe 82f5 693e
00000160: 2595 e63c 8a33 d93d 59be f2bc 83b5 fcbd
00000170: ad33 2b3e 0ec4 cabe de12 923e 87ac 223e
00000180: 8afa b13e 3733 a0bd ccf1 6e3e 6f46 653e
00000190: 6bb3 c7bd 6bd3 a2bd 60ed aa3d 1d35 0dbe
000001a0: f3fa 86bc da23 873e 1512 713e d956 2b3e
000001b0: c67c 3e3e 83bc c4bd 8c3f 43bd ef12 6ebf
000001c0: dc2b 2e3d e27c 333e fb03 d13e 3696 553e
000001d0: 658e 04bd 000c fe3d 93f1 443e 8ee1 a7bd
000001e0: 006a 8cbe 431c 2d3e f1be d3bd 73a3 c93d
000001f0: 56b6 053c 9ff0 8fbe a5a6 853e c50f f53d
00000200: a395 8a3d ba3e 1ebe 6ca3 9e3d d820 b53d
00000210: f00b 4cbe b349 813e 72f7 d53e 8bd0 1f3d
00000220: 4e0f 4c3e 74d8 0a3e 5058 743f 6672 273d
00000230: 4320 06be fc83 6c3e a8a2 aabd dabb f7bc
00000240: 7e14 ca3c 6cbc 3bbe 03aa 33be 3fe2 603d
00000250: 1e9a bb3d 3833 59be 9285 10be c90e 023e
00000260: 6ae3 d83e 3a56 15be 7d46 6c3d 1c0c 513e
00000270: ed2a c13e 822f 593e 46bb 8dbb d9a7 7f3e
00000280: 7caa 4c3e d315 ad3e a304 053e bbe5 8ebd
00000290: f63f a1be 05e9 263e b56b a1bc 4220 7dbe
000002a0: 4464 393d c56d 6d3e ad02 9e3d 43ff 583e
000002b0: edec 0c3c 85d6 44be 4066 093f c9ea 533e
000002c0: e0bf 6cbb 20b4 fabd ef56 cbbc a5ec 3d3c
000002d0: 2abb 93be a5b6 edbd e88e 743e 0ce0 bdbd
000002e0: d1f7 dfbd 6fd5 3dbe 696b e3bd e478 11be
000002f0: 248e 0a3e d4c5 c83c 4576 3e3e 7d61 bfbd
00000300: f3ad 283e ccef 47be 3021 26bd 0e92 94be
00000310: 9eb3 9f3e 212a 9d3b a1b2 91be a390 d4bd
00000320: 1680 a73d 37b2 5b3d 0fd7 533d fb54 57be
00000330: 4338 233c 09d8 61bd 092e 47be 08fc 8cbe
00000340: 113e 273e b047 c33d 6fa0 8bbe 44a0 1b3e
00000350: 623f 3bbe 6bdc 943d e528 70bc 476d d13c
00000360: 2e58 07bf f2bd d53d a884 5d3e fa3b dabe
00000370: d3e0 c6bd 38c7 c53d b6b4 8f3e c134 e03d
00000380: b840 40bd 7e74 76bb 9b91 273e 6c10 4f3e
00000390: 9188 873f 2db4 fe3d f9ea d1bd a087 5a3d
000003a0: 3d02 753c c0e6 eebd 8784 a8bd 7b8a 6d3e
000003b0: ab3e 3c3e ef88 c53e 0378 d73e b20a 063f
000003c0: cd2a 973e 87c8 e4bd 597a 8bbd 681d 5abe
000003d0: f14f 92be 03e0 f9bd 919f 683d 2e24 0d3e
000003e0: 806d 47be 720f 16be 8f2b 20be 5a88 0bbe
000003f0: 5177 3cbd 15de b5be 8782 8fbe dfdd 35bf

bias f4 [128]
-0.20954092 0.24896145 0.087000236 0.52519995 0.36857852 -0.08336887 0.4851403 -0.15276721
-0.07185425 -0.036622085 0.40131256 0.54803437 -0.17309229 -0.18133292 0.5044681 0.12312535
0.44467303 0.3841559 0.30869764 -0.111288585 0.49399906 0.48385996 -0.022208119 -0.17594586
0.2752438 0.14298944 0.15050858 -0.2716849 -0.13512318 -0.25759465 -0.12025334 0.26671913
-0.08366901 0.4468894 0.31995815 -0.20127799 0.26721084 0.5113623 0.124637604 -0.15703137
0.042625546 -0.10500937 -0.26124704 -0.15945072 -0.06422978 -0.15143059 0.50221264 0.5075258
-0.0017165215 0.46703702 -0.18298118 -0.037242778 0.35908931 0.12845565 0.31271172 0.2087448
0.38100743 -0.032934893 0.38353777 -0.28115052 0.19359188 0.23069742 0.06454133 0.27995953
-0.28063646 -0.03922783 0.34611574 0.35843533 0.091187574 0.0242378 -0.10407052 0.28898752
0.09107601 0.040899992 -0.18817483 0.22323298 0.0643052 0.019458612 0.17015807 0.025101317
0.39555916 0.16123572 0.49929744 -0.026851302 0.27364972 0.10149374 0.50447875 -0.10102561
0.46413752 -0.03479264 -0.22033049 0.4835807 0.20224965 -0.06588371 0.04939433 -0.25322536
0.34253702 -0.023777395 -0.24288474 0.33468813 0.457955 -0.2702337 0.40815237 -0.112442926
0.36221886 0.19930619 0.4764489 -0.21156862 -0.17957483 -0.06996807 0.00031075516 0.4973697
-0.08075864 -0.05987049 0.5460719 0.34880424 -0.018255144 0.54805696 -0.10154624 -0.26759905
0.28779653 0.12763347 -0.19861428 0.23545104 -0.10809565 0.3405779 -0.07869353 0.1578578
00000000: e591 56be c0ef 7e3e 2e2d b23d 8173 063f
00000010: 53b6 bc3e 4cbd aabd 4f64 f83e 026f 1cbe
00000020: 5228 93bd 0a01 16bd d778 cd3e fb4b 0c3f
00000030: 1b3f 31be 56af 39be d224 013f 2529 fc3d
00000040: 2fac e33e 15b0 c43e 9e0d 9e3e 45eb e3bd
00000050: 72ed fc3e 7ebc f73e cded b5bc 272b 34be
00000060: c1ec 8c3e d36b 123e ec1e 1a3e 491a 8bbe
00000070: bb5d 0abe 72e3 83be 6247 f6bd 698f 883e
00000080: a85a abbd b0ce e43e 8ed1 a33e d11b 4ebe
00000090: dccf 883e a4e8 023f 0042 ff3d d5cc 20be
000000a0: 2098 2e3d 270f d7bd 2cc2 85be 0d47 23be
000000b0: e78a 83bd 9f10 1bbe 0291 003f 36ed 013f
000000c0: e7fc e0ba 7a1f ef3e 6b5f 3bbe e28b 18bd
000000d0: 8eda b73e e189 033e c01b a03e 32c1 553e
000000e0: 6813 c33e bde6 06bd 105f c43e f6f2 8fbe
000000f0: f33c 463e f23b 6c3e 3f2e 843d db56 8f3e
00000100: 95af 8fbe 5cad 20bd 1536 b13e d684 b73e
00000110: 8dc0 ba3d 5a8e c63c ed22 d5bd 2cf6 933e
00000120: 0f86 ba3d c086 273d e7b0 40be 3097 643e
00000130: 72b2 833d ab67 9f3c eb3d 2e3e 47a1 cd3c
00000140: bb86 ca3e fa1a 253e eaa3 ff3e 43f7 dbbc
00000150: d11b 8c3e f3db cf3d 8525 013f 84e6 cebd
00000160: 6fa3 ed3e ba82 0ebd 519e 61be e497 f73e
00000170: 881a 4f3e 0aee 86bd b551 4a3d c1a6 81be
00000180: 0361 af3e d0c8 c2bc c7b6 78be 3e5c ab3e
00000190: 1479 ea3e 125c 8abe 59f9 d03e 7a48 e6bd
000001a0: c074 b93e ec16 4c3e 1cf1 f33e 72a5 58be
000001b0: 77e2 37be 6b4b 8fbd daec a239 3ea7 fe3e
000001c0: c964 a5bd c23a 75bd 5ecb 0b3f 7896 b23e
000001d0: d08b 95bc 764d 0c3f 7af7 cfbd be02 89be
000001e0: 115a 933e 59b2 023e 8b61 4bbe 141a 713e
000001f0: 4161 ddbd 3a60 ae3e 132a a1bd 7aa5 213e

weight f4 [128, 128]
0.04423583 -0.09804789 -0.5413688 0.0077759963 -0.10720869 0.0519824 0.050997533 0.03486692
-0.06925724 -0.19831571 -0.13148494 0.014704336 -0.2514348 -0.0467815 0.04444748 -0.0901697
-0.004376933 0.09911776 0.056189306 -0.025957514 -0.01150397 0.028088285 -0.023819657 -0.056691337
-0.26094168 -0.0040236865 0.009027567 -0.053249635 -0.24132964 0.05797038 0.03043067 0.048526015
0.019798722 -0.04748514 0.09610394 0.3333541 -0.060021512 0.042650573 0.0708433 -0.23625422
-0.40450096 -0.0018793297 -0.0755846 0.06449709 0.008661471 0.055755008 0.0020532631 0.06669469
-0.19563799 -0.040082693 -0.041208766 0.0023756155 0.023109918 -0.14474364 -0.008247861 0.059852682
-0.061198194 -0.33194265 -0.058637254 0.06646278 0.07067263 0.064890824 -0.041206058 0.06391536
0.29665145 -0.019703148 0.06957662 -0.0049178186 -0.17616157 0.005593299 0.046345647 -0.023920972
-0.14663476 0.10220576 -0.11654832 0.17404985 0.03184076 -0.013241465 -0.0029798164 0.13804877
-0.14247416 0.048930354 -0.035971086 0.010605753 -0.052783594 0.11615522 0.05097223 -0.0144427335
0.06448074 -0.09317466 0.04738015 0.0042437874 0.055998422 -0.007097136 0.0405292 -0.05887473
0.03513226 -0.00027548222 -0.05192756 0.03088874 -0.0154949855 -0.044563986 -0.015493069 0.055317458
-0.09638299 0.078839004 0.06343627 0.045131117 -0.015874336 -0.12525092 -0.1115194 0.03578464
-0.8957107 0.14122716 -0.016565029 -0.02182454 -0.05118209 -0.10770122 -0.02551081 -0.045668814
-0.051288564 -0.0895192 0.046704333 -0.093901984 0.21254715 0.02640863 0.0656234 -0.008398205
-0.13518955 0.13429862 0.24720067 0.27010533 0.38964748 -0.08742979 0.35895818 0.019532755
-0.068143636 0.011613107 0.26100937 0.27468845 -0.105282284 0.06377978 0.15727425 0.1854369
0.26749706 0.24855861 0.18243493 -0.05500201 0.30028838 0.12198828 -0.009853186 0.009530692
0.17208236 0.13440973 0.07455055 0.04617122 0.19354023 -0.21751513 0.0360217 0.11845898
-0.07073253 0.14902695 0.18463963 -0.23662393 0.3199794 0.21130343 0.18732166 0.03872323
0.16370961 -0.15964842 -0.054160465 0.0074335136 0.14115866 0.008068682 0.26578346 0.2149221
-0.038900904 0.24806276 -0.22347836 0.05879586 0.2283638 0.116195165 0.12649804 0.28866148
0.08171168 0.12159169 0.2894721 -0.067902684 0.20390488 0.13322935 0.1678584 0.23979194
-0.22687858 0.19627109 0.23249392 0.13599885 0.11011942 0.22277656 0.044502396 0.29172066
0.33828053 0.134441 0.14549129 0.10623948 0.20010842 0.14549468 0.13562621 -0.15515406
0.31465405 0.25830063 0.21313938 0.20243397 0.18452938 0.060460143 0.29353836 -3.6467587e-05
0.20225145 0.039929364 0.008576208 0.13505274 0.25088096 0.24675468 0.19209127 -0.009928524
0.14599341 -0.1082153 -0.26393962 0.202514 0.20541522 -0.05514364 0.10713357 -0.06070652
0.24261428 0.14044787 0.15030794 -0.09535706 0.07469123 0.16427256 -0.20308837 0.2180084
0.180636 -0.027144112 0.16516611 0.29318526 0.21294889 0.20617588 -0.036231495 -0.058090854
0.26260793 0.22763558 -0.019836104 0.19091699 -0.27022764 0.27839231 -0.14139932 -0.058614902
00000000: a130 353d 55cd c8bd 2597 0abf c9cd fe3b
00000010: 3b90 dbbd 7feb 543d cae2 503d 9ed0 0e3d
00000020: bdd6 8dbd 4613 4bbe fda3 06be 75ea 703c
00000030: 10bc 80be f59d 3fbd 900e 363d e4aa b8bd
00000040: 606c 8fbb 41fe ca3d c226 663d daa4 d4bc
00000050: 267b 3cbc 6719 e63c 7121 c3bc 2d35 68bd
00000060: 269a 85be 21d9 83bb 5ce8 133c 4a1c 5abd
00000070: 1e1f 77be 5972 6d3d be49 f93c 37c3 463d
00000080: ee30 a23c c77f 42bd 24d2 c43d 63ad aa3e
00000090: 1ed9 75bd 5eb2 2e3d 4b16 913d a0ec 71be
000000a0: c01a cfbe d753 f6ba 19cc 9abd 0d17 843d
000000b0: d8e8 0d3c 5d5f 643d 0a90 063b 3a97 883d
000000c0: 5355 48be c02d 24bd 86ca 28bd 37b0 1b3b
000000d0: 0351 bd3c ad37 14be 0922 07bc 1628 753d
000000e0: f5aa 7abd 63f4 a9be 9e2d 70bd a31d 883d
000000f0: d0bc 903d 7be5 843d afc7 28bd 0ee6 823d
00000100: b3e2 973e 7f68 a1bc 307e 8e3d a725 a1bb
00000110: b363 34be fe47 b73b efd4 3d3d eaf5 c3bc
00000120: 6c27 16be 4151 d13d e3b0 eebd 203a 323e
00000130: 756b 023d bbf2 58bc 0649 43bb a85c 0d3e
00000140: bfe4 11be 326b 483d 6b56 13bd c1c3 2d3c
00000150: 9c33 58bd cae2 ed3d 42c8 503d 37a1 6cbc
00000160: 7a0e 843d 5bd2 bebd b011 423d 780f 8b3b
00000170: 9a5e 653d 188f e8bb f201 263d a126 71bd
00000180: d8e6 0f3d 996e 90b9 feb1 54bd 620a fd3c
00000190: aede 7dbc ba88 36bd a4d6 7dbc 8f94 623d
000001a0: 7264 c5bd 5876 a13d e0ea 813d 68db 383d
000001b0: e50a 82bc c741 00be 4864 e4bd ea92 123d
000001c0: 4c4d 65bf da9d 103e 62b3 87bc 61c9 b2bc
000001d0: 50a4 51bd 7592 dcbd 0cfc d0bc 390f 3bbd
000001e0: f513 52bd d855 b7bd 0b4d 3f3d af4f c0bd
000001f0: f6a5 593e e956 d83c 9065 863d a098 09bc
00000200: 216f 0abe 9485 093e 2c22 7d3e 3f4b 8a3e
00000210: e07f c73e 640e b3bd 5ec9 b73e 2803 a03c
00000220: e48e 8bbd e744 3e3c 05a3 853e f7a3 8c3e
00000230: 3d9e d7bd f99e 823d 800c 213e 2ce3 3d3e
00000240: 60f5 883e 2686 7e3e 39d0 3a3e ca49 61bd
00000250: 66bf 993e fed4 f93d 426f 21bc 9f26 1c3c
00000260: 5c36 303e b4a2 093e f5ad 983d 081e 3d3d
00000270: 692f 463e 49bc 5ebe 7d8b 133d 9f9a f23d
00000280: 37dc 90bd 859a 183e 2c12 3d3e 8b4d 72be
00000290: 57d4 a33e ed5f 583e 40d1 3f3e 409c 1e3d
000002a0: 7ea3 273e e07a 23be 5dd7 5dbd d594 f33b
000002b0: e58b 103e 8132 043c c514 883e 8a14 5c3e
000002c0: 8e56 1fbd 2a04 7e3e 83d7 64be edd3 703d
000002d0: 33d8 693e bbf7 ed3d b488 013e 70cb 933e
000002e0: 7458 a73d 1005 f93d b035 943e 9010 8bbd
000002f0: 71cc 503e 466d 083e 13e3 2b3e 058c 753e
00000300: dc52 68be 4afb 483e e312 6e3e 4843 0b3e
00000310: 4a86 e13d 8a1f 643e 2548 363d 695c 953e
00000320: 1b33 ad3e e7aa 093e abfb 143e 1694 d93d
00000330: 39e9 4c3e 8ffc 143e 99e1 0a3e b5e0 1ebe
00000340: 561a a13e fb3f 843e 3641 5a3e da4a 4f3e
00000350: 45f5 3c3e 0ea5 773d a94a 963e c6f4 18b8
00000360: 011b 4f3e f98c 233d 3983 0c3c 444b 0a3e
00000370: 7873 803e 42ad 7c3e 93b3 443e 3fab 22bc
00000380: 4c7f 153e fc9f ddbd 1823 87be d45f 4f3e
00000390: 5e58 523e 4cde 61bd d868 db3d 66a7 78bd
000003a0: e16f 783e 91d1 0f3e 53ea 193e 904a c3bd
000003b0: b7f7 983d 1137 283e 66f6 4fbe 983d 5f3e
000003c0: a5f8 383e 545d debc 4e21 293e 611c 963e
000003d0: 460f 5a3e c51f 533e 7a67 14bd adf0 6dbd
000003e0: 8c74 863e 4d19 693e 537f a2bc be7f 433e
000003f0: 475b 8abe 7089 8e3e fcca 10be 2e16 70bd

bias f4 [128]
0.038738452 0.3054354 0.14495467 -0.0013450575 0.065461695 0.21737304 0.026533939 0.020890536
-0.04873824 0.012124648 0.23314048 0.19313851 0.22499183 0.16147913 0.16899686 0.0097806975
0.00026746688 -0.019612525 0.045635503 0.038076855 -0.029335432 -0.012017616 0.15659422 0.03771622
-0.07082744 0.003477125 0.092953905 0.25233606 0.23106927 0.28070465 0.19012353 0.2319607
0.017709322 0.19328049 0.0981537 -0.0043223323 0.15922703 0.020075904 -0.026169594 0.2636637
-0.015625492 0.027833771 0.16586033 0.07602217 0.023471348 0.22365329 0.21440768 -0.070859805
0.036997512 0.0490683 -0.05048708 0.25366673 0.2214014 -0.038873438 0.30885577 0.2431799
0.121900685 0.24105993 0.08525206 0.2626257 0.23030855 -0.030859292 0.02085784 0.12260868
-0.04798938 -0.03809708 -0.03403647 0.03893125 0.14487347 0.022902854 0.07122652 0.004960085
0.250334 0.15610324 0.07025385 -0.007888911 -0.028679335 0.015816852 0.29486516 0.21588926
0.060292233 -0.048145205 0.19604728 0.20699485 0.03308253 0.19489165 0.18542643 0.044689205
-0.0981407 0.04148964 0.024776788 0.22882545 0.21421312 -0.057372663 0.025639117 0.01824112
0.05622831 -0.10404111 0.14726686 0.30068344 -0.017739337 0.29125074 0.21996368 0.08299284
0.21813622 0.06269799 0.109316796 0.016631149 0.24019952 0.14017293 0.060339298 0.0020391587
0.18345104 -0.020107381 -0.09626056 0.06647408 0.120796084 0.23836412 -0.05532709 0.053258955
0.0128650945 0.19158371 0.06396766 0.036373142 -0.04852963 0.29824096 0.0774755 0.010926382
00000000: 36ac 1e3d 0762 9c3e ff6e 143e a44c b0ba
00000010: c810 863d 0a97 5e3e b45d d93c a122 ab3c
00000020: c0a1 47bd 76a6 463c 61bc 6e3e 1ac6 453e
00000030: 4264 663e c95a 253e 830d 2d3e 383f 203c
00000040: cc3a 8c39 72aa a0bc 4bec 3a3d 7af6 1b3d
00000050: dc50 f0bc 89e5 44bc 3c5a 203e 537c 1a3d
00000060: fa0d 91bd 7ae0 633b 9e5e be3d 3132 813e
00000070: 6c9d 6c3e 85b8 8f3e beaf 423e 1b87 6d3e
00000080: 2413 913c 52eb 453e cf04 c93d 5aa2 8dbb
00000090: 690c 233e 3976 a43c 9e61 d6bc eefe 863e
000000a0: 0801 80bc a603 e43c 4ad7 293e 83b1 9b3d
000000b0: fc46 c03c 5e05 653e b08d 5b3e f21e 91bd
000000c0: b48a 173d d7fb 483d 8acb 4ebd 9be0 813e
000000d0: 0cb7 623e c139 1fbd 5822 9e3e 2704 793e
000000e0: 11a7 f93d 6ad8 763e a298 ae3d e076 863e
000000f0: 01d6 6b3e a0cc fcbc 10de aa3c 421a fb3d
00000100: 8390 44bd af0b 1cbd d369 0bbd 6076 1f3d
00000110: b659 143e c49e bb3c 36df 913d 3588 a23b
00000120: c72b 803e 87d9 1f3e 40e1 8f3d 7e40 01bc
00000130: edf0 eabc 5892 813c 91f8 963e 1312 5d3e
00000140: fdf4 763d e833 45bd 9ec0 483e 75f6 533e
00000150: 8c81 073d ad91 473e 6de0 3d3e 070c 373d
00000160: fefd c8bd 0af1 293d b1f8 ca3c 3851 6a3e
00000170: af5a 5b3e 99ff 6abd 2009 d23c 676e 953c
00000180: a84f 663d 8113 d5bd 20cd 163e 2ef3 993e
00000190: 1652 91bc d11e 953e 293e 613e 26f8 a93d
000001a0: 1a5f 5f3e ce67 803d 7ce1 df3d 0c3e 883c
000001b0: ddf6 753e 7e89 0f3e 5726 773d 68a3 053b
000001c0: 97da 3b3e 3cb8 a4bc 4224 c5bd 9023 883d
000001d0: f063 f73d b915 743e a99e 62bd 1026 5a3d
000001e0: 1ec8 523c 852e 443e 7a01 833d 01fc 143d
000001f0: 01c7 46bd 0ab3 983e 7aab 9e3d 9104 333c

weight f4 [2, 128]
-0.26271877 0.20931439 0.13719814 0.023271488 0.122633085 0.22883502 0.25858366 -0.3438196
-0.6749478 -0.32907847 0.22572652 0.11498305 0.19765246 0.18286552 0.3088651 -0.2053101
-0.011453249 0.07789568 -0.01998525 -0.0024575235 0.11282833 -0.048477307 0.13382125 -0.1969949
-0.46447864 -0.36301804 -0.05849707 0.15969029 0.22419474 0.22793593 0.18511908 0.27355242
-0.13409123 0.16279459 0.23701386 -0.42661846 0.27380338 -0.049666643 -0.21685727 0.24556144
-0.3107176 -0.010852102 0.27927402 0.10140343 0.05425773 0.21835947 0.2622655 -0.22190794
0.09251843 0.077400684 -0.023847975 0.23601808 0.27916467 0.028924987 0.27162644 0.1738
0.31879842 0.24244207 -0.42976832 0.21568023 0.19925137 0.13562772 0.025857035 0.27942452
0.021072147 0.009059781 -0.04637266 -0.047738187 0.1748948 0.009432448 -0.030829206 0.00948476
0.21468106 0.25296 -0.18646978 -0.51636994 -0.18874611 -0.32362622 0.23882876 0.21288277
0.07217344 -0.051293317 0.207664 0.19610381 0.026077192 0.11740247 0.09536515 0.15038507
-0.20153111 0.10491493 -0.34925592 0.25497776 0.22483744 -0.111923516 -0.024205215 -0.080825105
0.1500045 -0.34977219 0.10954805 0.24443837 0.061578542 0.24724603 0.24526091 -0.3102685
0.14983119 -0.13913125 0.27083203 -0.28177118 0.19185509 0.17836654 -0.66037434 -0.19983073
0.28305346 0.023994476 -0.39177352 0.14551339 0.09498171 0.23908132 0.002367121 -0.052470647
0.12703799 0.25779343 -0.41455996 -0.11017118 0.04105826 0.21737014 0.15530804 0.19078752
-0.1163702 0.19610068 0.18289927 -0.007070971 -0.28206912 0.21920903 -0.20187128 -0.20656134
-0.070713304 -0.109577805 0.22049919 0.22932023 0.22553359 0.3006443 0.22836594 0.10832106
0.00028091946 -0.42508948 0.03821007 -0.05715521 -0.36573437 0.033693552 0.20216082 -0.111601286
-0.25648537 0.28108132 0.27302736 0.23993629 0.26878607 0.17521413 0.13156587 0.21370853
-0.5210405 0.24272567 0.074475676 0.2077344 0.1699646 -0.05159775 -0.12571095 0.2798477
-0.2278374 -0.034101333 0.18645951 0.37125507 -0.053911757 0.08255188 0.24431983 0.051005457
0.169946 -0.075924434 0.007178357 0.2618163 0.15573457 0.0626948 0.25906578 0.25461584
0.24513638 0.21170528 0.16370298 0.21255973 0.2252505 -0.19724622 -0.049269304 0.2233369
0.022917897 -0.28862202 -0.074083135 -0.39465454 0.23339635 0.030045224 -0.39367628 0.2751415
0.21370521 0.14783135 -0.12392214 0.16308264 -0.17111206 -0.44285926 0.23182629 0.23394692
0.037855227 0.06220139 0.24113138 0.25750563 0.03156868 0.24757557 0.22981356 -0.36285135
-0.29838988 -0.43555695 0.17528695 0.22804044 0.15818335 0.09544043 -0.033593517 0.17099945
-0.18612064 -0.28585774 0.24650617 0.18533716 0.3720167 0.19622055 0.26193509 0.099856056
0.24954762 0.13407679 0.103706844 -0.12396582 0.22671068 0.24740411 0.22050299 -0.08485093
0.17297609 -0.01346759 -0.22303365 -0.3138833 0.18481776 0.23647994 0.06467763 -0.06372434
-0.36824977 0.14841188 0.08463188 -0.34621045 -0.043493893 0.1897171 -0.23470211 -0.23077363
00000000: 1383 86be 8356 563e ab7d 0c3e d9a3 be3c
00000010: 0e27 fb3d ba53 6a3e 1465 843e 1f09 b0be
00000020: 61c9 2cbf f97c a8be da24 673e 3c7c eb3d
00000030: 6865 4a3e 1941 3b3e 9123 9e3e d03c 52be
00000040: 68a6 3bbc c587 9f3d 1bb8 a3bc 670e 21bb
00000050: 8a12 e73d 2490 46bd 7008 093e 08b9 49be
00000060: 25d0 edbe 80dd b9be a09a 6fbd da85 233e
00000070: 4e93 653e 0968 693e db8f 3d3e 100f 8c3e
00000080: 364f 09be a0b3 263e c3b3 723e bc6d dabe
00000090: f52f 8c3e 406f 4bbd d50f 5ebe 7574 7b3e
000000a0: 6116 9fbe 04cd 31bc 01fd 8e3e 9aac cf3d
000000b0: 5a3d 5e3d a099 5f3e aa47 863e d63b 63be
000000c0: 4d7a bd3d 4084 9e3d d45c c3bc b9ae 713e
000000d0: acee 8e3e 18f4 ec3c 9f12 8b3e a1f8 313e
000000e0: 8c39 a33e bc42 783e 980a dcbe 47db 5c3e
000000f0: 8d08 4c3e fee1 0a3e 22d2 d33c bb10 8f3e
00000100: 7f9f ac3c 7a6f 143c 42f1 3dbd 1e89 43bd
00000110: 9f17 333e 8e8a 1a3c 888d fcbc f865 1b3c
00000120: 5ad5 5b3e f983 813e eff1 3ebe d230 04bf
00000130: a946 41be 56b2 a5be 878f 743e f1fd 593e
00000140: abcf 933d f118 52bd dfa5 543e 70cf 483e
00000150: d69f d53c b570 f03d ce4e c33d 8bfe 193e
00000160: 2c5e 4ebe a4dd d63d acd1 b2be 728c 823e
00000170: c93b 663e 2838 e5bd 044a c6bc a287 a5bd
00000180: c89a 193e 5715 b3be ba5a e03d 0d4e 7a3e
00000190: c839 7c3d 102e 7d3e ad25 7b3e 83db 9ebe
000001a0: 596d 193e 6c78 0ebe 7faa 8a3e 5044 90be
000001b0: a975 443e b8a5 363e 4b0e 29bf 6da0 4cbe
000001c0: 62ec 903e 1090 c43c 8a96 c8be 7601 153e
000001d0: c585 c23d bcd1 743e b321 1b3b 76eb 56bd
000001e0: 3f16 023e 80fd 833e 3441 d4be 6da1 e1bd
000001f0: b52c 283d 4796 5e3e 1209 1f3e ce5d 433e
00000200: 8053 eebd 9ece 483e f249 3b3e 9bb3 e7bb
00000210: 5d6b 90be 5578 603e 58b7 4ebe d184 53be
00000220: 23d2 90bd 546a e0bd 8aca 613e ecd2 6a3e
00000230: 47f2 663e 0dee 993e c3d8 693e 6fd7 dd3d
00000240: 5f48 9339 54a5 d9be 2a82 1c3d 951b 6abd
00000250: 8941 bbbe 4002 0a3d 3f03 4f3e 378f e4bd
00000260: 0d52 83be e4e9 8f3e 3eca 8b3e dcb1 753e
00000270: 549e 893e 556b 333e 34b9 063e 69d6 5a3e
00000280: e962 05bf 148d 783e b486 983d 54b8 543e
00000290: 330b 2e3e 2a58 53bd 5fba 00be 3348 8f3e
000002a0: 354e 69be d7ad 0bbd 3eef 3e3e 2515 be3e
000002b0: 93d2 5cbd f610 a93d fa2e 7a3e 19eb 503d
000002c0: 5306 2e3e 457e 9bbd 6c38 eb3b c90c 863e
000002d0: e278 1f3e 2266 803d 45a4 843e 025d 823e
000002e0: 0805 7b3e 45c9 583e c1a1 273e 42a9 593e
000002f0: 11a8 663e eafa 49be 9cce 49bd 6eb2 643e
00000300: 50be bb3c 44c6 93be e6b8 97bd 2910 cabe
00000310: 74ff 6e3e 6721 f63c f08f c9be 59df 8c3e
00000320: 8ad5 5a3e 1a61 173e e4ca fdbd 23ff 263e
00000330: 0038 2fbe 73be e2be df63 6d3e c88f 6f3e
00000340: 150e 1b3d e2c6 7e3d 25eb 763e c7d7 833e
00000350: 294e 013d 7384 7d3e 3f54 6b3e a7c7 b9be
00000360: 8fc6 98be 5201 dfbe 6c7e 333e 6f83 693e
00000370: d1fa 213e 4676 c33d 5b99 09bd 7b1a 2f3e
00000380: 6996 3ebe f25b 92be 1d6c 7c3e 06c9 3d3e
00000390: f978 be3e 0aee 483e 5b1c 863e 5581 cc3d
000003a0: 6989 7f3e 6d4b 093e 4164 d43d cbe1 fdbd
000003b0: d826 683e 8157 7d3e 89cb 613e 53c6 adbd
000003c0: a520 313e 2ba7 5cbc ef62 64be 50b5 a0be
000003d0: de40 3d3e cc27 723e b575 843d e881 82bd
000003e0: 3c8b bcbe 49f9 173e 7b53 ad3d 7f42 b1be
000003f0: a726 32bd 3345 423e c055 70be ec4f 6cbe

bias f4 [2]
0.1900386 0.030911421
00000000: 7b99 423e f339 fd3c
